nn_clf.tflite (tflite, 36968 bytes, 6 tensors)

dense_35/bias f4 [3]
00000000: 25e1 4abd 6bfc 63bd 51a5 e83d
-0.04953112 -0.055660646 0.113596566

dense_34/bias f4 [20]
00000000: 6afb ae3c 0b86 dd3d 5c24 403d 643a 28bb
00000010: 4729 19bd 4eb1 7f3d 013c 173d 5c05 d83d
00000020: 9018 5b3c 0074 c93b ca8c 0e3c aed9 5c3c
00000030: d0c0 7c3d 29a0 893d 868f 0ebd 6824 34bc
00000040: e841 1d3c ea11 003c 5f59 943d c281 5d3d
0.021360118 0.10816582 0.046909675 -0.002566957 -0.03739288 0.06242495 0.03692246 0.10547897
0.013372555 0.0061478615 0.008700559 0.013479633 0.061707318 0.06720001 -0.034804843 -0.010995008
0.009598233 0.007816771 0.07243609 0.054078825

dense_33/bias f4 [40]
00000000: dfda 073c bdf2 26bd 3dbe 1b3d 507c 913d
00000010: 1963 0fbd b33b 833d 1aeb 4e3d 8466 8b3b
00000020: 2e04 b73c b3f9 4dbc 5dd7 143c b9eb 4c3d
00000030: b1a6 963c 37d0 9f3d 89dd f43d 23a0 f4bc
00000040: e68e 05bd 606c 493c cf25 df3b d640 8d3d
00000050: 268e 97bb 8e77 1cbc bdde 833d b672 1d3c
00000060: 64d4 b03c 58f1 9cbc 5feb 4abc 1d66 63bd
00000070: 695c 953d d7ed 0f3d 3a19 d33d ff59 b53c
00000080: e083 6cbd 29f7 8c3c a3f1 de3c 794c 333d
00000090: 02e4 1fbd 846c 093d e2e5 563c 5b9c 883d
0.008291929 -0.040758837 0.038023222 0.07103789 -0.035006616 0.06407871 0.05051718 0.004254164
0.02234086 -0.01257174 0.00908455 0.05002949 0.018390032 0.07803386 0.11956317 -0.029861515
-0.03260698 0.012293905 0.006809927 0.06897132 -0.0046250997 -0.009549988 0.06438968 0.009609869
0.02158565 -0.01915805 -0.012385218 -0.055517305 0.072930165 0.03513893 0.10307546 0.02213764
-0.057742953 0.017207699 0.02721483 0.043774102 -0.039035805 0.033550754 0.013116332 0.066704474

std.constant1 f4 [40, 195]
00000000: b8db 31bd 4c62 f13c 2bb8 2ebd 3e07 583d
00000010: ac13 1f3e 0897 68b9 8967 54bc d6ed 7b3c
00000020: c2be 77bc fb56 773d 22b2 a4bc 76f0 c7bc
00000030: 00c1 343d c81a 65ba b22b 4ebd 5393 a33d
00000040: 1d91 a2bd 09c5 5d3c b06d 0abc fab7 b13b
00000050: dc68 053b b281 423d a1d6 883c 6162 8dbd
00000060: 4ad7 81bd 4365 923d fdaa 9ebc ebee 3a3c
00000070: ed84 b33d f74a d4bd 86c2 12bd 28a6 0fbb
00000080: 0043 163d 32d3 a63d 46d7 84bd 3614 f2bc
00000090: a0b3 ab3c 3403 743d 94dc 4cbd 0f2a 6fbd
000000a0: b088 673d 21a8 57bd 96ef f23c 3442 603c
000000b0: 61c7 723d 6bdf 453c e964 6c3b 933c 41bc
000000c0: 69c2 e03c 9c62 a8bc 5921 29ba 99f6 58bc
000000d0: 8b9a ffbc a080 1d3d 6026 d43c 91fd cabc
000000e0: f610 f1bb cc6b 42bd 7d47 483d c051 8ebc
000000f0: 9863 80bc 73c0 ce3c d1c6 0bbd ba9c 31bd
00000100: dec3 2b3c d4f6 f03c 7208 483d 1f71 17bd
00000110: 5fc4 0b3b 483d 7cbb 37a3 49bd 1c3e aa3d
00000120: 9a92 2c3d 8ae8 9dbc 0ac3 8a3d 3a34 d63c
00000130: 2747 f6bb 7eaf debd 6b4d 263d a265 7bbd
00000140: d293 a03d 0e99 8fbc be44 233d f521 2f3e
00000150: df0c 84bd adf1 2d3d e0fa aa3c b072 9a3d
00000160: 4b29 22bd 0b7a 1fbd d52a 96bd 57f3 423c
00000170: eb35 923d d191 dd3c 7196 873c b414 92bd
00000180: 2cb7 563d 6122 b6bd 3331 393d d4c8 b83d
00000190: bfa1 18bd 8996 7fbd 4962 1b3d 13ca 933d
000001a0: b486 f8bd 2268 30bc c6b1 6dbc 152d 223d
000001b0: c9a3 e7bc 28f4 093d 4b5f 7cbc 0fb3 7b3d
000001c0: 186c 07be 1e41 cf3c bb38 043d 1440 26bd
000001d0: 155d 913d 8eef 35bc 4d7d 1bbc db55 203c
000001e0: 825e f5bc 83d7 893c a71d 313d 9b9b 4ebd
000001f0: 950c 8dbd 63c6 fa3d 9552 0bbb 11cf a33c
00000200: c283 b4bc cb36 413c 793c c43b 211f bebc
00000210: 1e78 493d 7d3d a3ba 9e39 88bd d3f0 053c
00000220: 7f66 083d f679 30bd 6148 083d c740 96bd
00000230: 0e63 0a3d 0742 a23c d5d0 9f3c 2fd3 4abd
00000240: 7fe1 bb3c 3cd0 d93a abd2 e8bc e234 16bd
00000250: 1232 3b3d f9fd 4cbb d8bc c23c 5afc 873c
00000260: cade 88bc 5e30 003c 17b7 04bd b0be 8a3b
00000270: f57a 1d3d 4ce6 36bd 72d9 e03c 2fde 3d3e
00000280: e1a9 67bd 1f14 af3d df5c e0bc 73f9 26bd
00000290: fd48 803d 3e70 c53a a06a a93c 06c5 d7bc
000002a0: 11ff cb3c e1b0 c8bb 229f a6bc cceb e2bc
000002b0: ba69 593d 6584 74bd 0272 de3c 4d15 f13c
000002c0: cd86 8dbd 09c6 203d bc43 dfbc fb39 4dbb
000002d0: 2339 a8bd 37b8 26bd 4e7c f33d 29d0 d03d
000002e0: d851 a8bd 215c eebc 2d42 773c 1e81 18bd
000002f0: 7951 ba3c f1e5 fd3c 2f2d 97bd ee80 073d
00000300: 5c00 1ebd 6992 a03b c5e0 5f3d 6374 ba3d
00000310: c72b d13d 2ba3 0d3d c225 993c d873 aabd
00000320: 07ba 32bc e757 fdbc 8588 c7bc bc6f 2f3d
00000330: 33d6 ba3d 4a5e aabd d214 d2bc aef9 cebc
00000340: e7df f93b d3d2 993a 3d01 e23b a09d 18bd
00000350: dfda 903c 16be 8dbd 5560 cabb 6349 843d
00000360: d4bd 1ebc 7868 6abb 2178 8cba 6fd7 ccba
00000370: 3b39 4abc d534 113a 899d 5b3c 79c8 1abd
00000380: a6ce da3a 3d87 50bd 2ac2 7d3d 3ffd cfbc
00000390: fb8c 83bc a1c7 e03c a087 8bbc 6d27 33bd
000003a0: c7c3 423d 3a7a b0bc b0a2 c03d e8aa 2bbd
000003b0: 5908 f9bd ee05 2ebd f85d e23d b829 e03d
000003c0: a8f7 0b3a c4d8 fcbc a087 753c e71d b6bd
000003d0: 34dc cc3d 0347 a9bc a492 99bc 5eee b33d
000003e0: f643 a8bd 258c b9bd 3874 963b 68cc 503d
000003f0: 8f3b cbbc 6728 e33d e07c c0bd a406 2dbd
-0.04342243 0.029465817 -0.042656105 0.05274128 0.15534848 -0.00022181508 -0.012964138 0.015376529
-0.015121164 0.060385685 -0.020104472 -0.024406653 0.04412937 -0.00087396475 -0.05033464 0.07987084
-0.079378344 0.013535746 -0.008449003 0.005423543 0.002035669 0.04748697 0.016703906 -0.0690353
-0.06339891 0.071482204 -0.019368643 0.011409502 0.08765588 -0.10365861 -0.035830043 -0.0021919105
0.03668499 0.08145751 -0.06486373 -0.029550653 0.020959675 0.059573367 -0.050015047 -0.05838972
0.05652684 -0.052650575 0.02965526 0.013687659 0.059272174 0.012077193 0.003607089 -0.011794227
0.027436452 -0.020554833 -0.00064518076 -0.013242387 -0.031201622 0.038452744 0.025897205 -0.024779113
-0.007356758 -0.047466084 0.0488963 -0.017372966 -0.01567249 0.025238251 -0.034125153 -0.043362357
0.01048371 0.029414572 0.04883618 -0.036973115 0.0021326763 -0.0038488675 -0.04922792 0.08312628
0.042131998 -0.019275922 0.06775482 0.02614795 -0.0075158062 -0.10873316 0.040601175 -0.06137622
0.078406945 -0.017529037 0.03986048 0.17102797 -0.064477675 0.042466808 0.02087158 0.07541406
-0.03959016 -0.03893475 -0.07332388 0.011898837 0.0713919 0.02704707 0.016551228 -0.07132855
0.05242078 -0.08893276 0.045212936 0.0902268 -0.037263628 -0.06239942 0.03793553 0.07216277
-0.121350676 -0.010767015 -0.0145077165 0.039593775 -0.028276341 0.03368011 -0.015403579 0.06145006
-0.13224828 0.025299605 0.032280665 -0.040588453 0.07097832 -0.011104478 -0.009490323 0.009786095
-0.029952291 0.016826397 0.04324117 -0.050441366 -0.068871655 0.122448705 -0.002125894 0.019996198
-0.022035483 0.011792849 0.005988654 -0.023208203 0.04918682 -0.0012454238 -0.066516146 0.008175093
0.033300873 -0.04308506 0.03327215 -0.07336574 0.033785872 0.019806875 0.019508759 -0.049517807
0.022934673 0.0016617845 -0.028420767 -0.036671527 0.045702048 -0.003127931 0.023771688 0.016599823
-0.016707797 0.007824032 -0.03240117 0.0042341575 0.03844734 -0.044653222 0.027447436 0.18541788
-0.056558494 0.0854876 -0.027388034 -0.040765237 0.062639214 0.0015063358 0.020680726 -0.026339065
0.024901899 -0.0061246012 -0.020339552 -0.027700327 0.053079344 -0.059696574 0.027153973 0.029429102
-0.06910477 0.03925136 -0.027253978 -0.0031315077 -0.08214023 -0.040703025 0.118889436 0.101959534
-0.082187355 -0.029096665 0.015091461 -0.03723251 0.022743927 0.030993434 -0.07381665 0.03308194
-0.03857456 0.004900266 0.054657716 0.0910423 0.10213428 0.034579437 0.018694762 -0.08322877
-0.01090861 -0.030925704 -0.02435709 0.042831168 0.091228865 -0.083187655 -0.025644694 -0.02526554
0.007625568 0.0011735804 0.0068971203 -0.037259698 0.01768249 -0.06921022 -0.0061760345 0.0645931
-0.009688813 -0.0035767835 -0.0010716954 -0.0015628169 -0.012342746 0.00055391836 0.0134042585 -0.037788842
0.0016693666 -0.050910223 0.061952747 -0.025389312 -0.016058436 0.02743894 -0.017032444 -0.04373877
0.04754999 -0.021542657 0.0940603 -0.041911036 -0.12159795 -0.042486124 0.11053079 0.10945457
0.0005339333 -0.03086508 0.014985949 -0.08892422 0.10002938 -0.020663744 -0.018746682 0.08785699
-0.082160875 -0.090599336 0.004591491 0.050976187 -0.024808673 0.110916905 -0.09398818 -0.04224266

std.constant2 f4 [20, 40]
00000000: 9d0b 053e 64bd 833d 7a46 f0bd e041 a73e
00000010: 2998 0cbe fed2 b73e 135a f53c 8f41 89bd
00000020: 819d 9bbe 0d16 163e ce3e 543e 954b 77be
00000030: 3799 583e 9ffe 7fbd 8b1a 6c3e 169e b43d
00000040: 25b2 f53c 710d 703e 11d6 9ebd d7ff b1bd
00000050: 1741 9f3e baf4 933e 2142 403e 73b3 243e
00000060: 4a26 b33e 4d0b f13d c3c7 d63d 7cc1 6a3e
00000070: ec93 99be 18c1 f03d 4f31 46be abe2 86bd
00000080: a32d 27be c325 5bbe add0 d53d a9a3 263e
00000090: 1f4d d13d 556b e6bd 9605 89be 0d1e 8cbd
000000a0: 75ef 18be 49f6 77be 4134 90bd 7fe2 a93d
000000b0: f72d 22be 51de 4dbd 6ad9 d5bc ef06 033d
000000c0: 38e8 413e 6e6d 8c3d ddf8 e8bd 68ed 8b3c
000000d0: bbe4 39be 3bb9 1bbe e87d ae3c 47bb 71be
000000e0: 0fd4 913d 59fa e4bd cde8 7c3e 743d 113e
000000f0: 1662 51be b66b c33d fec9 70be 00fb 533d
00000100: 17cc 35be 433a 1abe 5cf7 413e 6710 4cbe
00000110: 6048 d33d 7bff 2fbe 804d 333e 82b5 883d
00000120: 1149 053d c6f9 9e3e 179d a13d 753a 0cbe
00000130: 0696 cc3d 7609 263e 7e9f 12bd 619b 2a3e
00000140: cbd0 9bbd d845 19bc 8ef6 2e3d 2dca 85bc
00000150: e927 bfbd 20dd 5fbd 459d debd 6df8 8ebd
00000160: 6135 dc3d 5203 16be c225 e4bd 52f9 ccbd
00000170: 5f26 10be ab08 d3bd 2e07 0bbc 4e41 52be
00000180: f194 453e c960 9dbd 35a7 893d 235a d23d
00000190: 88ed 32be efdf 8c3d 5287 febd d2be 603d
000001a0: ef3f 0fbe 19ec e7bd 7168 0d3e 68e7 02bd
000001b0: 136f a23d 4c16 d83c 391a a33d f50a f13d
000001c0: 8572 943e d0c4 0a3e 75fd 7c3e b947 16be
000001d0: a9a0 00bd 8e1e f33d 0ba5 e73c b45e f03d
000001e0: 2ec3 36be 4e27 8cbe 0fec 76be 2865 a83e
000001f0: ea76 5dbe 66f7 d0bd 1c46 9ebc 3438 663e
00000200: e0c6 46bd 7d47 8c3e 056c 083d 73ca e7bd
00000210: f03f a43e a490 8a3e ecc0 993e 14bb 7bbe
00000220: b3f5 c0bd f987 15bd 8b07 333e 63cb f7bd
00000230: 54f9 0a3c f9a2 dcbd 1f05 63be a51e 9c3e
00000240: 6718 9f3e 02a9 3dbe 4864 103e acaf 403e
00000250: 97a4 34be 06b9 8c3d d629 e13d 0719 ef3d
00000260: 178a 16bc f57a 3d3e bd3d 82be e590 ce3d
00000270: ed30 913e c6c7 143e 6ee1 d0bd b26f dd3c
00000280: 8ca9 aa3d 382b 7b3e 7a16 3d3d 25d5 33be
00000290: 9119 003e 94ff 37be dfb1 cebd 6f04 c8bb
000002a0: 2983 21be 39f1 113c 60c6 273d f231 32bc
000002b0: ab86 3dbd 321a 483d 1908 b13c 719f da3d
000002c0: 2f18 ffbd 82c1 883d e85e ca3d ec94 233d
000002d0: 9b74 f7bd eece 8d3c 1498 b0bd db52 c1bc
000002e0: c40d b93b 9c70 153d 7a18 cabc 023a 353e
000002f0: 6e0e 053c 4a95 f53d 870c 093d c3ea 69bd
00000300: 706c 333d 987c 11be 40e5 1cbe 69c4 bcbd
00000310: 364a 863e 80c1 a33d 1a72 bc3d 8a64 0abe
00000320: b085 15be dc45 5dbe 1cee fdbd 3330 bd3e
00000330: e6bb 803c 3864 51bc 14c1 113e d8f2 873d
00000340: d72d c43d a278 c23d 2827 71be 76f9 2c3e
00000350: e9ad 47bd d506 ca3d b075 b6bd 70f8 91be
00000360: be76 2fbe 27c6 f1bd 3ebe 2ebe c4df 823d
00000370: fbc4 843c 2e7d 643d fc4e 163d 72ec 09be
00000380: 3252 f7bd a68b 82be 9826 75bd 66dc 473e
00000390: 1494 303e 5c8e 19be 3341 cf3d 9d56 a73e
000003a0: 3228 9c3e 7ec7 a93e a810 e73d eb39 0c3e
000003b0: 9aa8 85be e93a e5bd 89da 9cbd bed7 0a3e
000003c0: 2515 223d 136a a63c a349 ae3d df6d ee3d
000003d0: ae58 2e3e 37c7 83bc 2f46 8cbd 1aad 0ebe
000003e0: e31d afbd 7dd5 433d 077b bd3d c705 023e
000003f0: f103 123b 2c03 14bc a7cc 57bb 5d2a 2ebd
0.12992711 0.06432608 -0.11732192 0.32667446 -0.1372992 0.35903162 0.029950177 -0.067019574
-0.30393603 0.14656849 0.20727083 -0.24149926 0.21152197 -0.062498685 0.23057 0.08819215
0.029992172 0.23442627 -0.07755674 -0.08691376 0.31104347 0.2889765 0.18775226 0.1608408
0.3499015 0.117697336 0.1048732 0.22925371 -0.29995668 0.1175558 -0.19354747 -0.06586202
-0.16326003 -0.21401124 0.10440192 0.16273369 0.10219788 -0.11250941 -0.26762074 -0.06841669
-0.14935096 -0.24215044 -0.07041217 0.08295154 -0.15837847 -0.050260846 -0.026104648 0.031989034
0.1893624 0.068568096 -0.11375592 0.017080978 -0.1815366 -0.15207379 0.021300271 -0.23606597
0.07120525 -0.111805625 0.24698181 0.14183599 -0.20447573 0.095420286 -0.23514554 0.051753044
-0.17753635 -0.15061288 0.18942016 -0.19928132 0.10316539 -0.17187302 0.17510033 0.06675245
0.032540385 0.31049937 0.07891291 -0.13694175 0.09989552 0.16214547 -0.035796635 0.16660835
-0.076081835 -0.009355031 0.0427156 -0.016331756 -0.09333784 -0.05465424 -0.108698405 -0.06980977
0.10752369 -0.14649704 -0.11140014 -0.100084916 -0.14077137 -0.10304388 -0.0084855985 -0.20532724
0.19295098 -0.07684476 0.06721345 0.102710985 -0.17473423 0.068786494 -0.12428154 0.05486948
-0.13989232 -0.11324329 0.13809372 -0.031958967 0.07931342 0.02637782 0.07963986 0.11769668
0.2899362 0.1355164 0.24706061 -0.14675798 -0.031403217 0.11871062 0.02827694 0.11736813
-0.17847893 -0.27373737 -0.24113487 0.32889676 -0.21627393 -0.102034375 -0.01932054 0.22482377
-0.048529506 0.2739829 0.03330614 -0.11317911 0.3208003 0.27063477 0.3003 -0.24583083
-0.094218634 -0.036506627 0.17483346 -0.1209934 0.008482296 -0.10773272 -0.22169922 0.3049213
0.31073305 -0.18521503 0.14100754 0.18817014 -0.17640911 0.06871228 0.10994308 0.116746955
-0.009188197 0.18503936 -0.25437728 0.1008623 0.2835764 0.14529333 -0.10199247 0.0270308
0.0833312 0.24528205 0.046164013 -0.17561777 0.12509753 -0.17968589 -0.1009252 -0.006104044
-0.1577269 0.00890761 0.04096067 -0.010876166 -0.046271008 0.048853107 0.021610307 0.10674942
-0.124557845 0.06677534 0.09881383 0.039936945 -0.120827876 0.017310586 -0.086227566 -0.023599079
0.005647393 0.036484346 -0.024669874 0.1769791 0.008121116 0.11991365 0.033459213 -0.05710865
0.043804586 -0.14207685 -0.15321827 -0.0921715 0.26228493 0.079958916 0.09201451 -0.13514915
-0.14601779 -0.2160868 -0.123989314 0.36950836 0.015714597 -0.012780242 0.1423381 0.06638116
0.09579056 0.09495665 -0.23550093 0.16892037 -0.048749838 0.09864584 -0.08909166 -0.28509855
-0.1713514 -0.11805373 -0.17064759 0.06390336 0.016207209 0.055783443 0.03669642 -0.13469103
-0.120762244 -0.25497168 -0.05985126 0.19517669 0.17243987 -0.14995712 0.10119858 0.32683268
0.30499417 0.33160013 0.11282474 0.13693969 -0.26105195 -0.11192877 -0.0765887 0.13558862
0.039570946 0.020314252 0.08510139 0.1164205 0.17026016 -0.016086204 -0.06849324 -0.1393322
-0.08550622 0.04781102 0.09251981 0.12697516 0.0022280181 -0.009033959 -0.0032928379 -0.04252087

std.constant3 f4 [3, 20]
00000000: b6eb 973f ce0b 5abf 99f1 52bf 2821 a83f
00000010: a05f 27be d000 e73e e7a9 babf d26a d5be
00000020: d4e9 913f bba3 cfbf d21f a0bf b13f b23f
00000030: bdbe a93e f533 80bf 9a6c 14bf aa34 e9bf
00000040: b5d7 db3e fa78 8e3f 141d 09c0 4537 efbf
00000050: 2b4d 44be 71a8 31be 3ddc a9be a153 13c0
00000060: 9148 183f 9d1d 38bf 6077 b53f c9cc 183f
00000070: 38fc 46bf 335b eb3f 351c b43f c7f2 9abd
00000080: 7205 c23f c882 0dbf 400a 273f f2fc a23f
00000090: be28 903f a6c0 21bf 9d54 323f 6cce ccbf
000000a0: 098c e4bf 0148 9f3f 1c5d a23d c2ca 463f
000000b0: 0ebc 6dbe c8fd a93f abe8 c9be 5efa 00c0
000000c0: 49d5 58bf 00e5 96bf 087e 91bf e649 10c0
000000d0: 371e 15c0 2101 1d3f a393 a0bd c37d 79bf
000000e0: 737b 1fc0 ac7c 8cbe 7231 503f 4cf8 1540
1.1868808 -0.8517426 -0.823999 1.3135118 -0.16345072 0.45117807 -1.45831 -0.4168306
1.1399484 -1.6221842 -1.2509711 1.3925687 0.33153334 -1.0015856 -0.5797821 -1.8219197
0.4293801 1.1130669 -2.1423998 -1.8688742 -0.19170062 -0.17349412 -0.3317584 -2.3019793
0.5948573 -0.71920186 1.4177055 0.5968748 -0.77728605 1.8387207 1.4071108 -0.07565837
1.5157912 -0.5527768 0.65250015 1.2733443 1.1262434 -0.63184583 0.6966036 -1.6000495
-1.7855235 1.2443849 0.079279155 0.77653134 -0.23216268 1.3280573 -0.39435324 -2.0152812
-0.8470045 -1.1788635 -1.1366587 -2.2545104 -2.3299692 0.6132985 -0.078406595 -0.9745752
-2.4919097 -0.27438867 0.8132545 2.3432798
